BuildAndTestNetwork/mnist_model.pth (torch, 89975 bytes, 8 tensors)

conv1.weight f4 [10, 1, 5, 5]
000000 c4 e1 e3 3d 30 d1 e8 3e e4 e8 b5 bc 75 b4 9b bd
       0.11127046 0.45472097 -0.022205777 -0.07602779
000010 e5 c3 ea bc 11 5e 16 be a6 7a 6a 3e 38 0a 3d be
       -0.028657863 -0.14684321 0.22898349 -0.1846093
000020 1c b6 3a be 39 8d 80 be c2 29 72 bd 07 f0 e8 3c
       -0.18233532 -0.25107744 -0.059121855 0.028434766
000030 92 3d d5 bd 0f e6 25 3e 9f 68 81 3e a6 fa 02 bd
       -0.10412134 0.16201042 0.25275132 -0.03197732
000040 43 3c 9b 3e c8 76 c9 3e 6d bd 69 3e 4c 3a d9 3d
       0.30319414 0.39348435 0.22826166 0.10606822
000050 77 72 5d 3e fc 49 27 be 69 bc 89 bd ca fc 55 be
       0.21625696 -0.16336817 -0.067253895 -0.20897213
000060 45 10 d2 bd 98 45 f8 3d 38 47 8b 3d f6 40 49 3d
       -0.102570094 0.12122649 0.06800693 0.049134217
000070 2c 4c 4e be 03 d2 7d be 28 65 fd b9 d0 51 a7 be
       -0.20146245 -0.24787144 -0.00048331288 -0.32679605
000080 03 e4 d2 be 33 e6 51 bd d1 5b 19 3e c0 8d 60 bd
       -0.41189584 -0.051244926 0.14976431 -0.054822683
000090 65 30 83 be 4d 09 b5 3d 88 a4 ab 3e 6a 99 85 3e
       -0.2562286 0.088396646 0.33523965 0.26093608
0000a0 d8 d0 9e be 8c 39 87 bc 99 1d 02 3f b2 a3 74 3e
       -0.3101871 -0.016506933 0.5082641 0.2389057
0000b0 9e 0b 8e 3d e9 57 93 3e f1 39 03 3f a1 27 62 bd
       0.069358096 0.28778008 0.51260287 -0.055213574
0000c0 9a 1d b1 be 4a c9 75 be 14 f6 e9 3d aa 80 56 3e
       -0.34592897 -0.24002567 0.11423889 0.20947519
0000d0 f1 b4 66 bd ba 82 85 bd 07 86 9c 3d 37 b8 f3 3d
       -0.056324903 -0.06519075 0.07642751 0.119003706
0000e0 43 a6 78 bd b0 69 ac bd e2 c2 9b 3d d6 58 65 bb
       -0.060705435 -0.08418596 0.0760553 -0.0034995577
0000f0 be 72 4d 3d 6e c2 2f be 49 82 83 bc b1 48 b9 bd
       0.050158255 -0.17164013 -0.016053336 -0.09047068
000100 af 9e dd bd 5e e0 e4 bb 91 9f 85 be df 30 79 be
       -0.10821282 -0.0069847545 -0.26098302 -0.24335049
000110 a6 26 83 be b0 5c fb 3d 6f ef cb 3d c7 71 6f 3e
       -0.25615424 0.12273538 0.09957778 0.23383246
000120 77 bf a6 3e f7 83 d1 3e 51 a8 b4 3e 52 eb f1 3c
       0.3256795 0.40920994 0.35284665 0.029531155
000130 b7 26 06 be 9c 7f 65 be d8 b5 ab 3d e0 3f 86 3d
       -0.13100706 -0.2241196 0.08384293 0.06555152
000140 49 41 ad 3e bc 11 68 be 67 87 84 be 6f b2 47 be
       0.3383887 -0.22663015 -0.25884554 -0.19501661
000150 ab 8f 85 bd 17 21 5a 3e fb 43 2e 3e f0 d7 a7 be
       -0.06521543 0.21301685 0.1701812 -0.32781935
000160 d0 3c d5 be bf 09 be bd b5 6e 8a 3e 8b b4 06 3f
       -0.4164796 -0.09279203 0.27037588 0.52619237
000170 68 0a 85 bd a8 b2 31 be 17 99 8c be c1 dd 9f bd
       -0.064961255 -0.17353308 -0.27460548 -0.07805968
000180 dc 7c f6 3e 4d 92 00 3f 69 de 9b 3e 91 10 24 3e
       0.48142135 0.5022324 0.30443123 0.16021945
000190 ee 8b e8 bc 7d cf 24 be 7f 3f 2a 3e 34 2d fc 3d
       -0.028387036 -0.16094775 0.16625784 0.12313309
0001a0 54 3a 6e bd be 9a 09 be 92 07 65 bd 53 af f6 bd
       -0.058161095 -0.13437936 -0.055915423 -0.12045159
0001b0 cd 39 d6 bc 8a fa e2 be 61 db 37 bd f1 71 3c 3e
       -0.026150608 -0.4433177 -0.04488695 0.1840284
0001c0 8a 2c 16 3d 8e fd 5a be f2 84 f6 bc 59 ea 8a 3e
       0.03666357 -0.21385786 -0.03009269 0.27131918
0001d0 98 33 90 bd 2a 76 34 3d b2 39 0f 3e 62 40 e8 3e
       -0.07041091 0.044058003 0.13986853 0.4536162
0001e0 b9 22 1a 3e c2 bd 68 3e 69 16 37 bd 33 1f f5 3d
       0.15052308 0.22728637 -0.044699106 0.119688414
0001f0 a1 d8 09 3e 80 47 ff bc 4e 75 79 3e a6 59 b1 3d
       0.13461544 -0.031162024 0.24361154 0.08659677
000200 c7 f7 59 3d 4b d2 04 be b1 ca b6 3d 8b e0 8e 3e
       0.053214815 -0.12970845 0.08925379 0.27905688
000210 02 b0 9e 3d ae 1a 52 be 35 c7 a0 bd bf 54 e3 3d
       0.077484146 -0.2051799 -0.07850496 0.111001484
000220 a1 13 9f 3e be 7a 6c 3c c2 3b 8f be d4 6e 1e be
       0.31069663 0.014433561 -0.2797528 -0.15471965
000230 c0 a5 8f 3e 8e bc 58 3e ef 18 27 be 53 e4 e6 bd
       0.28056145 0.21165678 -0.16318105 -0.11274018
000240 a1 c3 a9 bd 85 07 9b 3e 43 bf 55 be d7 b5 88 bc
       -0.082892664 0.30279174 -0.20873742 -0.01668827
000250 93 30 9e be 2b b4 83 be d7 b8 ae 3c 85 9a 75 3e
       -0.30896434 -0.25723395 0.021328373 0.23984726
000260 b4 29 8d 3e bc cd f0 3e 80 55 0e 3f 2c 59 32 3b
       0.2757088 0.47031963 0.5559921 0.0027213795
000270 3c 5d 4a be 9b 21 85 be d2 4f 50 3d 90 d9 83 bd
       -0.19762129 -0.260022 0.050857373 -0.06437981
000280 5a 6e b9 bd 62 07 9b be e2 0b 51 be 47 7d 22 bf
       -0.09054251 -0.3027907 -0.20414689 -0.6347241
000290 e2 1d a3 be 9d 43 91 bd a3 d9 09 3d d2 21 65 bd
       -0.31858736 -0.07092974 0.03365482 -0.055940457
0002a0 09 7a 3c be 11 44 57 be 2e fe 5e 3e 58 ac a8 3e
       -0.18405928 -0.21022059 0.2177665 0.32943988
0002b0 51 0e c4 3d 39 6c b4 3e 19 cb 38 3e c1 94 84 3d
       0.09573043 0.35238817 0.18046226 0.06473685
0002c0 48 28 c0 3e 6e 92 8b 3e ec 35 7d 3e c0 41 93 3e
       0.37530732 0.27260154 0.24727601 0.287611
0002d0 4d d6 0b be 9d a4 f2 bd ea 68 9d bd 65 4d 53 3d
       -0.13655968 -0.11847804 -0.076860264 0.05158748
0002e0 5b 1b af bd cf 7b ff bd e2 53 24 be 90 f9 1e be
       -0.085501395 -0.124747865 -0.16047624 -0.15524888
0002f0 8c 4f a5 be 04 72 87 be e0 61 8c bd 4d 82 15 be
       -0.32287252 -0.26454175 -0.06854606 -0.14600487
000300 b2 99 45 be 35 66 b0 bd 3b ba 25 be 77 e0 b2 3b
       -0.19296911 -0.086132444 -0.16184323 0.005458887
000310 9d 66 27 be ad d5 89 bd d6 d3 af bd ef 09 ef 3d
       -0.16347738 -0.067302085 -0.085853264 0.116718166
000320 a3 c9 1c bd 29 b7 84 3d 22 73 52 3e 50 19 a4 3d
       -0.038278233 0.064802475 0.20551732 0.080126405
000330 03 2c 27 3e d8 7a c2 3b b8 7e dd bd 87 50 dc bd
       0.16325383 0.0059350543 -0.10815185 -0.10757547
000340 df f5 27 3d 0a dd 26 3e e2 3a a4 be 2f 88 48 be
       0.041005965 0.16295257 -0.32076174 -0.195832
000350 2a 39 8d be 5f 0d b3 3e 5d 40 a0 3e 65 31 b2 be
       -0.27582675 0.3497114 0.31299105 -0.3480331
000360 e5 1a a1 bd 7e 24 be 3d c3 cc d6 3e 6c b5 b9 3b
       -0.07866458 0.09284304 0.41953096 0.005667379
000370 33 88 02 be 8c 6b 99 bd 9d 5a 4d 3e ca 08 b9 3e
       -0.12747268 -0.07491216 0.20054097 0.36139518
000380 59 9f 0f 3d 61 c7 32 be ee 13 29 be 13 ab 66 be
       0.035064075 -0.1745887 -0.16511509 -0.22526197
000390 27 de 50 bd b9 46 f2 3d eb 3c 50 be 89 0e a3 be
       -0.05099311 0.118298955 -0.20335738 -0.31847027
0003a0 bb bb a5 bd 8c 0f 92 be 69 63 20 bd e0 bd f8 bd
       -0.08092447 -0.28527486 -0.039157305 -0.12145591
0003b0 4e a8 16 bd c2 4b e4 bd 3b 7b c5 bd f5 38 85 bc
       -0.0367816 -0.11147262 -0.09642645 -0.01626251
0003c0 e1 a8 d6 3d 38 2f 9e 3d e3 d2 0e 3d 7e 7c 65 3c
       0.1048143 0.0772385 0.034869086 0.014006732
0003d0 e8 86 3a 3d cf 93 e7 3d ea ec 1d bb 70 e7 90 3e
       0.045538813 0.11307489 -0.002409751 0.28301573
0003e0 d4 22 1e 3e 96 da e3 3e
       0.15442973 0.44502705

conv1.bias f4 [10]
000000 fd b4 f5 bc 2e 50 8d be fd ac 0a be d4 77 81 bd
       -0.029993529 -0.27600235 -0.13542552 -0.063216835
000010 cc e3 23 bc 37 7b 8f be 2c 35 2a be 48 39 e6 be
       -0.0100030415 -0.28023693 -0.16621846 -0.44965577
000020 3e 53 3b be af e4 fa be
       -0.18293473 -0.49002597

conv2.weight f4 [20, 10, 5, 5]
000000 30 5e 8e 3d 34 4c d9 3c 62 98 6a bd 80 12 41 bd
       0.069515586 0.026525594 -0.05727423 -0.047136784
000010 d4 9e 9a bd 8f b9 e0 3d 23 26 59 3d 3c 6f ec bc
       -0.07549825 0.109728925 0.053014886 -0.028861634
000020 f3 ba 42 bb 5a 2a ea bc 03 91 8c 3c 41 bf 9d 3d
       -0.0029713481 -0.028584648 0.01715899 0.077024944
000030 df 2b 92 3d 4b 82 ef 3d 24 19 17 3d 92 0b 0b 3e
       0.07137274 0.11694773 0.03688921 0.13578632
000040 d2 bf 5c 3d d4 71 c9 3c 8a f8 fb 3d 00 5a 3a 3d
       0.05389387 0.02459041 0.123032644 0.045495987
000050 f1 d8 a6 3d 66 6b 5f 3d 3d 20 b9 bd 3a 10 32 bd
       0.08146847 0.054545783 -0.09039352 -0.043472506
000060 8d 7e 98 bd 68 95 01 3e 50 28 71 3d b8 93 d5 38
       -0.07446013 0.1265465 0.058876336 0.00010184146
000070 aa f3 f6 3b 0d f4 d4 3a 72 74 42 3e e4 48 2f be
       0.0075363712 0.0016247049 0.18989733 -0.1711765
000080 28 2c 95 bd d1 07 69 3c 7d bf 88 bd 8e ee b5 3d
       -0.07283813 0.014223055 -0.066771485 0.08883391
000090 6f 4a 0a bd e0 ad c0 bd 72 5b f2 bd 3c 8e 0e 3d
       -0.03376239 -0.09408164 -0.11833848 0.034803614
0000a0 39 24 82 3d 30 43 a7 3c ba 2a 78 3c 23 86 20 3c
       0.06354565 0.02041778 0.015146906 0.009797606
0000b0 02 3d 25 3d 09 d8 20 3e 3a ef 28 3e e9 97 04 3e
       0.040341385 0.15707411 0.16497508 0.12948574
0000c0 50 f5 84 bc 8a 69 b7 bd e1 4b 06 3e dc 38 c8 bb
       -0.016230255 -0.08955677 0.13114883 -0.006110294
0000d0 65 4f 1b bd f6 a5 2e bd c0 a1 9a 3b 7c a6 87 bc
       -0.037917513 -0.04263874 0.004718989 -0.016558878
0000e0 e4 5b 4b bd 2c 7b 80 bd 1c e9 7e bd 46 e4 e0 3d
       -0.04964818 -0.06273493 -0.06223403 0.1098104
0000f0 4d 2c 05 3a 72 2f 8d 3d 7d 3e 30 bd da ff 6c 3d
       0.00050801487 0.06893815 -0.043028343 0.057861187
000100 09 78 b8 3d b6 b9 c7 3c 4e 27 56 3d d4 99 23 3c
       0.0900727 0.024380546 0.052283578 0.009985406
000110 58 c9 9c bc 50 fb e4 bd 1f 4d 2a 3d 5e da 41 3d
       -0.019138977 -0.111807466 0.041577455 0.04732739
000120 7f a8 a3 3b 6c 96 ad bd a0 6a 30 bd 0d d8 50 bd
       0.0049944515 -0.08475956 -0.043070436 -0.050987292
000130 fa ff 9a 3b cd 8a 83 3d c5 1a 29 be 66 a9 43 bd
       0.004730222 0.064229585 -0.16514118 -0.047768973
000140 61 26 28 be f3 f5 36 3d bf 6a 62 3e 86 1d 8f 3e
       -0.1642089 0.04466815 0.22111033 0.27952212
000150 d2 71 6e 3d ed 72 4a bd 92 cd fe bd c0 f6 3d bd
       0.058214016 -0.049426008 -0.12441553 -0.046377897
000160 a4 c4 73 3e c4 5c 60 3e c5 26 76 bc 8e 2a 39 be
       0.23805481 0.21910387 -0.015023892 -0.1808264
000170 72 33 5b be d0 30 3d bd ec 75 0a bd 27 fb bd bd
       -0.21406344 -0.04618913 -0.033803865 -0.09276419
000180 1f d9 97 be 22 66 2d be d4 04 22 be f3 19 b7 bd
       -0.29657838 -0.16933492 -0.15822154 -0.08940496
000190 d6 8b 84 3d c2 f3 fe 3c b4 44 10 3b e2 3b 21 bd
       0.06471984 0.031122092 0.0022013607 -0.03936375
0001a0 ad e4 d1 bc 75 d0 90 bb 29 70 4a 3d c8 83 21 3c
       -0.025621736 -0.0044193813 0.04942337 0.009858079
0001b0 dc a6 ac 3d ff 0b ff 3c b7 2b 64 bc 59 66 eb bc
       0.084302634 0.03113365 -0.013926438 -0.028735327
0001c0 40 77 d5 bc 32 18 61 3d bd 55 c3 3d ab cb 22 bd
       -0.02605784 0.054954715 0.09537838 -0.039745014
0001d0 58 73 92 bd ca ae c2 bc 14 45 fe ba 6d 70 09 bd
       -0.07150906 -0.023764987 -0.0019399249 -0.033554483
0001e0 4f 97 04 3d ea 6a 29 bc 98 d3 86 3d 71 c1 63 bd
       0.03237086 -0.010340432 0.06583327 -0.055604402
0001f0 47 5d 12 be 4e 25 bf 3c cb d8 bb bd 27 63 87 bd
       -0.14293395 0.023333218 -0.09172209 -0.06610709
000200 dd 0a dd bc 72 25 72 3c d7 d3 c5 3c c3 92 f9 bd
       -0.02698272 0.0147794355 0.024148865 -0.12186196
000210 63 85 72 bd 82 51 a5 bc 8e 7a e3 bd 0e a7 6a bd
       -0.05920924 -0.020180468 -0.1110736 -0.057288222
000220 a4 ed 64 bd 25 07 63 bc 4a dc b8 bd 47 56 94 bd
       -0.055890694 -0.013856684 -0.09026392 -0.072430186
000230 29 3d 87 bd 99 6f c4 bd 5e 4e ab 3d 21 ec f6 bc
       -0.06603462 -0.09591598 0.08364557 -0.030141892
000240 64 bb 08 bd a2 d1 57 be 11 86 40 3a 2a 11 31 3d
       -0.033381835 -0.21076062 0.0007344196 0.04322926
000250 61 43 76 3d 79 d2 76 3d 74 d9 81 bd 1c 38 91 bd
       0.06012285 0.060259316 -0.06340304 -0.0709078
000260 7e d5 25 ba 27 99 66 bc 45 40 6f bd e9 34 af bc
       -0.00063260633 -0.0140746 -0.0584109 -0.021387534
000270 bf 69 9c bb 57 b0 89 bc 0b d7 da 3d f4 13 f3 3a
       -0.004773348 -0.016807718 0.106855474 0.0018545375
000280 32 95 87 3d 18 f4 c5 3d ce f0 a6 bc 7e 8f ed 3b
       0.066202536 0.09665698 -0.020378496 0.0072497716
000290 92 91 07 3a d6 8c 35 3d 1c 4b 9b 3d e3 d2 5e 3d
       0.0005171533 0.044323765 0.07582685 0.054400336
0002a0 06 94 8c 3d a6 12 b8 3d f5 e4 53 3d bf 8f 38 3a
       0.06864171 0.08987932 0.051732022 0.0007040463
0002b0 58 d0 be 3c 9f 60 e9 3d 62 c8 9a 3d ca 46 c8 3c
       0.023292705 0.11395382 0.07557751 0.024447817
0002c0 8c 0b 96 bd 51 70 98 3c e1 a9 06 bb 93 12 80 bc
       -0.07326421 0.018608244 -0.0020548033 -0.015633857
0002d0 af ac 15 bd 21 08 c8 bd c0 4f 30 bd ab 27 97 bd
       -0.036541637 -0.097671755 -0.043044806 -0.07380613
0002e0 b2 36 07 be be 67 4d bd b0 bf b1 bc e0 8b 55 be
       -0.13204458 -0.050147764 -0.021697849 -0.2085414
0002f0 7d 25 d1 bd 69 aa 0a bd f6 f0 61 bd 11 26 47 3d
       -0.102122284 -0.033853922 -0.05516144 0.048620287
000300 97 eb 1c bd e4 fe 99 bd 4d 46 2b bc f0 54 84 3d
       -0.038310613 -0.0751932 -0.010453773 0.06461513
000310 ae fe 00 3e 84 8a de 3d ad 03 51 3d 24 e1 31 3d
       0.12597153 0.108662635 0.051028896 0.0434276
000320 80 a5 9c bc 61 2b e7 bd 30 a3 b7 bc 9f 82 26 3e
       -0.019121885 -0.11287571 -0.022416681 0.16260765
000330 a1 fe ad 3d 08 16 02 bd 03 51 05 be 79 36 41 3c
       0.08495832 -0.031759292 -0.13019185 0.011792772
000340 0c 15 eb bc db 08 e7 bc a5 0f 99 bd 24 fd a7 bd
       -0.02869656 -0.028202465 -0.07473687 -0.082025796
000350 2e 00 9a 3c e4 90 c6 bd b6 78 83 bd 67 64 00 be
       0.018798914 -0.096956044 -0.06419508 -0.125383
000360 59 b9 84 bd d9 2d a8 3d cd 3f bc 3c a4 2e 02 ba
       -0.06480665 0.0821187 0.022979641 -0.00049660564
000370 b7 02 35 3c 60 0d 80 bd 57 d7 00 3d 18 e1 f8 3c
       0.011048011 -0.06252551 0.031455364 0.03038077
000380 6c c7 ba bd 3b af b3 3d 8b bb 5e 3d 17 5f 12 3d
       -0.09120068 0.08773657 0.054378074 0.035735216
000390 36 f7 93 3c 56 6a dd bd 6e 28 ae bd 1a 82 24 3b
       0.018062215 -0.108112976 -0.08503805 0.002510196
0003a0 43 86 5f 3c 95 dd f6 bd 2e 00 c5 ba 48 62 e9 bd
       0.01364285 -0.12053982 -0.0015029961 -0.11395699
0003b0 92 f6 f3 bc 66 94 e7 bd cb ce 49 be 23 42 ba 3c
       -0.02978066 -0.11307602 -0.19707792 0.022736615
0003c0 0b 0f a4 bb ac 53 9b bc 37 6f 39 bd 57 31 2d be
       -0.005006676 -0.018960796 -0.04527208 -0.16913353
0003d0 4e 93 2c be 66 8d 7f 3c 71 3a be 3d 55 b8 3e 3e
       -0.16853067 0.015597677 0.092884906 0.18625005
0003e0 68 59 ba 3c d2 c4 c5 bd fc 9c ad 3d bf 3f 21 3c
       0.02274771 -0.09656681 0.08477208 0.009841858
0003f0 a4 cc e4 3c f3 d2 b7 3b f9 46 3e bd f3 a4 f0 3d
       0.027929612 0.005609864 -0.046454404 0.117502116

conv2.bias f4 [20]
000000 d2 a6 23 bc d0 be 2d 3d 45 ac 23 3c fa 3c 50 3d
       -0.0099885035 0.0424183 0.009989803 0.0508394
000010 7c 42 9f bc d3 c6 11 3d 8f 2c 7b bd 19 a6 37 3d
       -0.019440882 0.035590004 -0.06132179 0.044836137
000020 90 56 4a 3d 20 53 ef 3c 3b 14 5b 3d 7c 7f 80 bc
       0.04939896 0.029214442 0.05348609 -0.01568579
000030 eb 12 9d bd eb f6 a0 bd fd 61 93 3d 1b a7 59 bb
       -0.07669624 -0.07859596 0.07196424 -0.0033211175
000040 f8 b6 67 3c fe 6c 21 bd 02 48 b8 3d 95 7b c8 bc
       0.014142744 -0.039410584 0.089981094 -0.024472991

fc1.weight f4 [50, 320]
000000 dd 46 62 3b f9 a4 17 bd 5a 80 48 3d 31 4d 18 3d
       0.00345271 -0.037022565 0.04895053 0.03718299
000010 f3 19 90 bc d9 90 db bd 8e 7d 7a 3d b7 07 d7 bb
       -0.017590499 -0.10720987 0.061154895 -0.006562199
000020 0b 55 dc 3c ff d8 53 bd 62 36 14 3d e0 d5 01 3d
       0.02689602 -0.051720615 0.036184676 0.031698108
000030 ba 29 cb bd 03 85 69 bd 29 fd e2 3b 88 8c 5b 3d
       -0.09920068 -0.057011615 0.0069271517 0.053600818
000040 80 15 16 3d 80 0f a1 bd 8a 1a 4f bc ca de 3c 3b
       0.036641598 -0.078642845 -0.012640605 0.0028819316
000050 56 e0 da 3c c0 d5 8f bd bd ce 06 3d 0a 30 52 bb
       0.0267183 -0.070231915 0.032912005 -0.003207209
000060 a2 84 54 bd b8 90 cf 3d c2 ff 4f 3d 9b af 9b 3c
       -0.0518843 0.10135025 0.05078102 0.019004634
000070 9f 4f d5 bc 5c 27 96 bd a0 62 8b 3c 9d 88 07 3c
       -0.026038943 -0.07331726 0.017014802 0.008272317
000080 ad 47 10 bc eb f9 fb bd 0d 5a db bd e4 eb 0f be
       -0.008806151 -0.123035274 -0.10710535 -0.14054829
000090 de e8 98 3c 4b 47 30 bc ee a0 35 bd a6 3f b5 3d
       0.018665727 -0.010759185 -0.044342928 0.088500306
0000a0 e1 2a 25 bd 1d 37 24 bd 3e 02 28 3c 83 73 1a 3c
       -0.040324096 -0.040091623 0.010254441 0.009426954
0000b0 9d 68 4b bd 39 50 8e bd 64 80 0b 3d 16 9d 82 3d
       -0.049660314 -0.06948895 0.03405799 0.06377618
0000c0 b1 01 86 bd 0d ad 6e bc 45 1f 5a bd 7e e4 df 3c
       -0.06543291 -0.014567626 -0.053252477 0.027330633
0000d0 21 4f 9a 3c 91 1d dc 3d f7 28 c3 3c 6e de bf bc
       0.01883656 0.10747827 0.023823244 -0.023421492
0000e0 f9 68 28 bd 27 61 c9 bd a0 a0 a2 3d 6d 2e 1e bd
       -0.041115735 -0.098329835 0.07940793 -0.038618494
0000f0 6c c9 cf bd 05 63 c4 3c 27 71 34 3d 7a dd 4c bd
       -0.1014584 0.023972997 0.044053223 -0.050015904
000100 8f be 29 3a 0f cf d7 bd 12 0c 79 bd 8f 4a 78 3c
       0.0006475234 -0.1053754 -0.060802527 0.015154495
000110 ee 90 91 3b 89 9f f6 bc ba fa 12 3d 45 fa 86 3d
       0.004442326 -0.03010537 0.035883643 0.06590704
000120 f0 7c cb bd 6e ac aa bc 8f f7 2e bd 83 82 34 bc
       -0.09935939 -0.020834174 -0.04271656 -0.011017445
000130 29 42 8e bc 53 af 94 3d 06 86 8e bb ac bd c8 3c
       -0.017365532 0.07260003 -0.004349473 0.024504505
000140 5d 34 a2 3d 58 c0 b7 3d b3 f7 5d 3b e4 d6 9f 3b
       0.07920144 0.089722335 0.0033869564 0.004877912
000150 2f 11 4e 3d f7 46 fd bb 80 7d 20 3d 56 ef 26 3d
       0.050309356 -0.007729407 0.039182186 0.040755592
000160 a4 d1 45 3b f1 7c 77 bd ce 2d f0 bc 6d 31 58 bd
       0.003018477 -0.060421888 -0.029318716 -0.05278151
000170 25 f8 4c 3d 2f ec 8e bd 7b a5 aa bd 23 cf e1 bd
       0.050041337 -0.06978642 -0.08332344 -0.11025836
000180 f2 58 64 bd 04 d5 fb 3c 39 2a 2d 3c 88 28 b3 bd
       -0.055748887 0.030741222 0.010569149 -0.08747965
000190 76 2b a4 3b ce 82 71 3d d9 72 db 3d a7 75 d9 bc
       0.0050100638 0.058962636 0.10715265 -0.026545359
0001a0 53 d4 81 3c b0 ce 11 3d ac 12 75 bb ed a8 59 bd
       0.015848314 0.035597503 -0.0037395163 -0.053139616
0001b0 7e 62 1b 3c 53 5d 3d bc eb 1b 2c bd 7e b7 8b 3d
       0.009483932 -0.011557895 -0.042018812 0.06822108
0001c0 10 9f 03 be c9 4d 2e bd a6 b7 a1 bd ed 15 17 3d
       -0.12853646 -0.04255465 -0.07896356 0.036886144
0001d0 af ab dc bc 8f e3 10 bd 66 6e 1f bb 44 f3 9a bc
       -0.026937334 -0.035373267 -0.0024327277 -0.018914826
0001e0 d9 1f 96 bc 4a ca b2 bd 87 ec ad bc ae 8e e6 3a
       -0.018325733 -0.0872999 -0.02123095 0.0017590129
0001f0 be d9 0f bd 53 f3 47 bd 41 05 8c 3d 12 bc cf 3c
       -0.035119765 -0.048816036 0.068369396 0.025358234
000200 a9 09 a0 bc ee f6 88 bd e4 d6 ac 3c 35 95 68 3c
       -0.019535856 -0.06687723 0.021098562 0.01419573
000210 49 f9 3f bd c7 ee 27 bd 35 ed 1c 3c 38 2f 06 3d
       -0.046868596 -0.0409992 0.009578039 0.032759875
000220 36 bd 24 bc 92 c9 86 bc 54 86 06 3d f2 e2 5d 3c
       -0.010054877 -0.016453538 0.03284295 0.0135428775
000230 e4 81 bc bd 39 48 36 3d 0a 68 5c 3d 83 54 78 3d
       -0.09204462 0.04450247 0.053810157 0.06062747
000240 a2 34 2e bd 54 f1 cc bd 63 f5 7d bd f3 1c bf bc
       -0.042530663 -0.10006967 -0.062001597 -0.023329234
000250 e7 50 a8 3c da d9 68 3c db e2 c3 bd 3f 39 91 3a
       0.02054639 0.014212096 -0.095647536 0.0011079683
000260 0d 4f a3 bd 67 b1 56 bd ec f2 d1 bc eb 54 95 bc
       -0.07974062 -0.052415278 -0.02562853 -0.018228969
000270 3b 79 48 bd e3 21 eb bc 3e 33 d5 3d 59 c7 98 3d
       -0.04894374 -0.028702682 0.10410164 0.074598975
000280 02 1d 57 bd c1 a6 c0 bc 7e 3a bc 3d e8 ba 33 3d
       -0.0525179 -0.023517014 0.09190844 0.04387942
000290 bf 37 28 bd 8c c7 77 bd e7 e1 59 3d 8a 0a c5 bd
       -0.04106879 -0.060493037 0.053193953 -0.09621151
0002a0 09 52 f7 3b fb 37 ca bc 39 9c 45 bd 91 5a 91 3d
       0.007547621 -0.024684897 -0.04824469 0.07097352
0002b0 93 80 b5 3d 2a ea 1b bd a1 ce 23 3d 3a 35 3f bd
       0.08862414 -0.038065113 0.03999198 -0.04668162
0002c0 60 2f 92 bc 5a 90 9d bd a0 7b a3 bd 14 6f d9 3c
       -0.017844856 -0.076935485 -0.07982564 0.026542224
0002d0 01 e1 f8 3c 13 b2 1c 3d 1b 44 56 3c e9 85 98 3c
       0.030380728 0.038255762 0.013077761 0.01861854
0002e0 a5 6d 3e bc 48 7a 35 bd b6 b9 52 bc 47 64 85 bd
       -0.011622821 -0.04430607 -0.01286166 -0.06513267
0002f0 9a 54 b0 3c 79 d3 2e 3d 7d 45 ad 3c eb 4d 86 3d
       0.021524716 0.042682145 0.021151299 0.065578304
000300 ad 0a 67 bd e4 9d 30 bc 21 69 11 bd a4 93 86 bd
       -0.056406666 -0.010779832 -0.03550065 -0.06571129
000310 1a 97 df 3c 74 f5 69 3c c1 cd 19 3d 46 1e 9d bd
       0.02729373 0.014279712 0.037549738 -0.0767179
000320 62 df 23 bd e1 18 55 bc 1a d9 55 3c bf a4 87 3c
       -0.040007956 -0.01300642 0.013052249 0.01655805
000330 e6 74 31 3d 25 ca 8a bc 96 06 0a 3d 48 ce 9b 3d
       0.043324374 -0.016942093 0.033697687 0.076077044
000340 79 0a 11 3c 83 f0 c7 3c bf 4b 13 bc 4c 08 81 bd
       0.0088525945 0.024406677 -0.008990227 -0.06300411
000350 49 40 0b 3d 0a 7a b1 3c 15 b4 b1 3c fe ff 70 3d
       0.033996854 0.021664638 0.021692315 0.058837883
000360 0f ee 60 bd d0 7d a4 3d 9b 8b 02 3c 8a cc 40 3c
       -0.05491453 0.08031809 0.007967855 0.011767516
000370 c6 de f2 bc 08 f7 39 3d 8c 37 87 3d 08 8c d5 bb
       -0.029647242 0.045401603 0.066023916 -0.006516937
000380 37 9e 4a 3d 51 54 d9 3d 23 e9 6e 3d 4c b0 56 3c
       0.04946729 0.10611785 0.058327805 0.013103556
000390 12 57 86 bd 07 96 24 bd 16 26 10 bd 55 2a 21 3b
       -0.06559576 -0.04018214 -0.03519257 0.0024591882
0003a0 b1 6c 41 3c f8 97 d8 3d df 9f 45 bd 36 29 62 bd
       0.011805699 0.10575861 -0.048248168 -0.055215083
0003b0 bb 47 4b 3c 2d e8 0c bc 3b 6e fa bd 50 ca a1 bd
       0.012407239 -0.008600277 -0.12228056 -0.07899916
0003c0 6f 06 9b bd 5b 41 38 3c dc 1e ec 3d ce 6b 86 3a
       -0.075695865 0.011246051 0.115293235 0.0010255517
0003d0 d7 02 14 3c c3 94 9a 3d d7 3a cd 3c d8 f9 1c 3d
       0.00903388 0.07547905 0.025052471 0.038324207
0003e0 13 79 05 bc df a7 a1 bc b8 9b ba 3c b9 11 aa bd
       -0.008146542 -0.019733367 0.02277933 -0.083041616
0003f0 38 d5 55 bd a8 78 23 3d ce d0 72 bd f1 39 42 bd
       -0.052205294 0.03990999 -0.059281163 -0.04741854

fc1.bias f4 [50]
000000 a6 9b d7 bb 02 dd 01 bd 5c 6c 68 bd cb f6 cd bc
       -0.006579834 -0.03170491 -0.056743965 -0.025142094
000010 d8 59 1a 3d c3 39 d6 3c 8a d1 c6 bc 57 57 6a 3d
       0.037683338 0.02615059 -0.024269838 0.0572122
000020 b3 dc cb 3c ac 95 0f 3e cb 92 ab bd 48 76 4d 3e
       0.024885511 0.14021939 -0.08377608 0.20064652
000030 05 f1 b8 3d b7 1e a2 3c 2d 32 9a 3d b5 8a 29 bd
       0.09030346 0.019790037 0.075291015 -0.041392047
000040 ca 29 12 3d 8e ea d0 3d 2c 68 8d bc d7 65 c3 3d
       0.035684384 0.10200988 -0.017261587 0.09540909
000050 b1 6e d7 3c 78 70 63 bd b2 1c 00 3d 0c 8b cc 3c
       0.026297899 -0.05552718 0.031277366 0.024968646
000060 10 c4 8a 3d ac 37 03 3e e4 11 5d 3d 78 ab e8 3d
       0.06775677 0.12814206 0.05397214 0.1136083
000070 46 50 15 bb fd 10 a9 3c c9 7c 83 3c 07 5c 19 bc
       -0.0022783442 0.020637983 0.016050713 -0.00936032
000080 94 9c aa bb 64 74 18 3e 5c 7a 29 3d 3c fc dd bc
       -0.005206654 0.1488815 0.041376457 -0.027097814
000090 3b 83 14 3e 31 66 41 bc 81 a6 d9 3d 04 a6 41 3d
       0.14503185 -0.0118041495 0.10627461 0.047277465
0000a0 7c c2 85 3d b2 2f 01 bb 79 50 36 bd 87 57 9f 3d
       0.065312356 -0.0019712267 -0.04451034 0.077803664
0000b0 95 87 be 3d 6d 9d 49 3c db e9 5c 3c 87 76 3a 3d
       0.09303204 0.0123056 0.01348349 0.045523193
0000c0 8e 4a 02 bd 8d 2b b1 3d
       -0.031809382 0.08650885

fc2.weight f4 [10, 50]
000000 1c 48 7d be 3c 29 1a bd 26 4a f8 3c f3 ec 83 3e
       -0.24734539 -0.03763698 0.030308794 0.25766715
000010 9a 94 a2 be d6 e0 c5 3d 89 29 9a bd 74 90 71 3e
       -0.31754 0.09662025 -0.075274535 0.2359026
000020 1f a8 e1 3d 91 1d e3 bd eb 7e 92 be 9e 91 34 be
       0.11018395 -0.11089624 -0.28612456 -0.17633674
000030 54 35 8b 3c 83 fa 7b 3e f3 7e ba 3e a7 99 a6 bd
       0.016993202 0.24607281 0.3642498 -0.081347756
000040 5b fd 98 3e 0a e8 3e bd 0f 9c 92 be d5 95 ad bd
       0.29880795 -0.04660801 -0.28634688 -0.08475844
000050 02 6f 35 3e 8a 73 28 3d 75 47 d5 bc 76 40 b4 bd
       0.17718127 0.04112581 -0.02603505 -0.088013574
000060 6d dc 91 3e 04 82 5c be 17 6b 22 3c d5 d6 4d 3c
       0.28488484 -0.21533972 0.0099132275 0.012563427
000070 d9 d0 c6 bd da be d9 3c 23 30 1f be cf 41 46 3d
       -0.09707803 0.026580263 -0.15545706 0.048402604
000080 35 98 a0 bd 87 7e eb bd 5b 5b 98 be 6d 8a df bc
       -0.07841531 -0.114987426 -0.297572 -0.027287686
000090 55 e6 78 be f2 52 4f 3b 8d 34 f3 bd f5 1a 74 3e
       -0.24306615 0.0031635133 -0.11875258 0.23838408
0000a0 84 ba 83 be a1 e8 52 3e 6e e4 ec bd 9d 2d 96 be
       -0.25728238 0.20596553 -0.11567007 -0.29331675
0000b0 88 0f 06 be 6f bb 03 3f 5d d9 a1 3b 6b 87 04 3e
       -0.13091862 0.51457876 0.004939242 0.12942283
0000c0 b8 1d 0d be 37 a1 95 3c 12 97 39 be 62 ed 2c 3e
       -0.13780868 0.01826535 -0.18124035 0.1688743
0000d0 9b 35 95 bc 28 29 6f bd a8 2d 59 3d 68 8f c9 be
       -0.018214038 -0.05838886 0.053022057 -0.39367223
0000e0 b4 64 30 bd a3 19 26 be e3 7b e9 3d 98 72 8a 3e
       -0.043064788 -0.16220717 0.11400583 0.27040553
0000f0 75 76 68 be 0d b5 df 3e 4f aa 72 be b9 29 c3 be
       -0.22701438 0.43692818 -0.2369778 -0.3811777
000100 44 20 49 3e e8 ee de bc 8a 5c 73 be 55 68 a5 3e
       0.19641215 -0.027213529 -0.2376577 0.32306162
000110 b7 4c 72 bd 44 d3 c9 bd 2c 77 cb bd 29 b8 98 3d
       -0.059155192 -0.09854749 -0.099348396 0.07457001
000120 5d f6 68 3d ed 9d 2e 3e ac e1 95 3e 99 f4 11 be
       0.056875575 0.17052431 0.29273736 -0.14253463
000130 61 16 c7 3d 52 ce 58 3e 1f 4d 96 be 8d 95 00 be
       0.09721065 0.21172455 -0.29355714 -0.12557049
000140 4d f3 be bc eb 21 e4 3d 25 3c 0d be cf fe 8d 3e
       -0.023309374 0.11139282 -0.13792475 0.27733466
000150 16 ce 3d be 20 48 32 be e7 25 fb 3d 49 af f0 be
       -0.18535647 -0.17410326 0.12263089 -0.47008732
000160 75 a5 60 3e 23 db 4e 3e 5b 9c b8 3e a7 38 b1 be
       0.21938117 0.20200782 0.3605679 -0.34613535
000170 69 a8 31 3d 76 72 86 3e 8a da 2a 3e c5 ce ce bc
       0.0433735 0.26259202 0.16684929 -0.02524508
000180 21 4b 19 3e 07 fb 73 bd da 87 70 bc 54 23 33 be
       0.14970066 -0.05956557 -0.014680827 -0.17493945
000190 3f 0c ce bb d2 0e 92 bc 26 e5 30 be 8e 77 97 3e
       -0.006288081 -0.017829333 -0.17274913 0.295834
0001a0 7f 99 2a be 06 49 a8 be 61 56 57 3e 2f d0 50 bd
       -0.16660117 -0.32868212 0.21029045 -0.05097979
0001b0 ed 32 66 3e 0c b2 8d 3d b2 f8 ff bc 92 9e 4f be
       0.22480364 0.06918725 -0.031246517 -0.20275334
0001c0 0d 88 9f bd fe 37 c0 3e 67 4b a0 3e b2 2f 61 3d
       -0.077896215 0.3754272 0.31307527 0.054977126
0001d0 90 9b bc 3d 18 ed ef 3d 0f 10 d0 be de 77 80 3e
       0.09209359 0.11715144 -0.40637252 0.2509145
0001e0 d1 a2 58 3d da 10 ca 3c 23 4f 77 3e b9 4e 2a be
       0.05288965 0.024666239 0.24151282 -0.16631593
0001f0 4c 9b 81 be e3 d0 7b bc 7b 75 0b be c6 7d 05 be
       -0.25313795 -0.015369627 -0.13619034 -0.1303626
000200 da c7 4a 3e 06 fc 80 be 5b 3e 90 3c 2d f9 fe bb
       0.198028 -0.2519228 0.017607858 -0.007781169
000210 bf 03 4b bd 99 6f 33 3e f5 20 a3 bd f4 59 23 3e
       -0.04956412 0.1752304 -0.079652704 0.15952283
000220 c8 d4 a1 3c 47 6f 07 3e ba 7b c5 3e f3 50 cb 3c
       0.019754782 0.13226043 0.38570958 0.024818873
000230 9f 9e 40 be 17 82 f9 bd ca 8a 4f 3e 25 09 0f 3e
       -0.18810509 -0.12183016 0.20267788 0.13968332
000240 76 ac 88 be c3 39 9f be 10 65 d1 3e 98 7f 9c be
       -0.26694077 -0.31098756 0.40897417 -0.30566096
000250 2c 67 9c 3b 07 aa 24 3d b7 4d 77 3e 9d 7f 04 be
       0.0047730412 0.040201213 0.2415074 -0.12939306
000260 99 1d c5 3d 1a e0 a9 be 54 43 a9 be a7 f0 8f 3d
       0.09624786 -0.33178788 -0.3305918 0.07028323
000270 5b 5d cb 3e c0 7f 95 3d 9b 34 30 bb 76 b8 bf be
       0.39719662 0.07299757 -0.0026886824 -0.3744542
000280 0b 2f 9d bd 16 66 29 be 21 ba 9a be 0e a8 b0 3d
       -0.07674988 -0.16542849 -0.3022013 0.08625804
000290 2d ba 05 be fb e7 fe 3d a9 3d 55 be 59 c5 92 3e
       -0.13059302 0.124465905 -0.20824303 0.2866619
0002a0 6d fd 90 3d cb c8 18 3e cb ad 14 3e 3b 09 18 3c
       0.07079587 0.14920346 0.14519422 0.009279544
0002b0 fa 62 b9 3c ff f8 a6 be 48 53 2f 3d f5 b2 b4 3e
       0.022630204 -0.32611844 0.042804033 0.35292783
0002c0 0b 6d 31 3e 2b d4 af 3d 1c c6 0b 3e 9d 47 3b 3d
       0.17326753 0.0858539 0.13649791 0.045722593
0002d0 2f 80 42 be 4e 9a 0e 3c d7 fb 24 3e f2 04 92 be
       -0.1899421 0.008703781 0.16111694 -0.28519398
0002e0 bb 73 e0 3e 92 11 e9 bd 25 55 c5 bd 76 b2 28 be
       0.43838295 -0.113803044 -0.09635381 -0.16474327
0002f0 7f d4 26 bd fb c6 1d bd d1 94 5b 3e fd 7f 3a 3e
       -0.040729996 -0.03851984 0.21443488 0.18212886
000300 8d d6 d9 bd 2e fb 07 3e 68 9c 37 be 33 1e 0c be
       -0.106366254 0.13279411 -0.17930758 -0.13683395
000310 00 32 91 3e 87 b7 73 be 19 dc b2 3c f6 f0 e4 bd
       0.2835846 -0.23800479 0.021833466 -0.11178772
000320 e6 59 3d be ae 66 6c 3d 96 54 e1 bd fe 45 a7 3d
       -0.18491325 0.05771511 -0.110024616 0.08167647
000330 62 b2 f0 3e 57 98 71 bd 76 ca 73 be b6 3d 88 be
       0.47011095 -0.058983173 -0.23807701 -0.26609582
000340 31 16 0d bc 97 ac fa bd e5 c2 9d 3e 57 27 6d 3d
       -0.008611248 -0.1223995 0.30812755 0.057898846
000350 2e cf 71 3e 3c 78 cb 3c 96 bf 77 be ac 46 32 3d
       0.23614189 0.024837606 -0.24194178 0.04352443
000360 33 48 13 3e ec df 41 be 99 8d a1 3e 34 d3 47 3e
       0.1438301 -0.18933076 0.31553343 0.19514161
000370 a9 ba 4b 3e 37 6e 26 be ee 88 d4 3e af 82 aa 3e
       0.19895424 -0.16252981 0.4151072 0.3330283
000380 f9 a6 b5 3a 9e 55 0a bd 04 90 57 bd fd 66 4f be
       0.0013858966 -0.033773057 -0.05262758 -0.2025413
000390 f2 1d 63 3e 78 e5 49 3e 8a 27 17 be a3 67 79 3d
       0.22179392 0.19716442 -0.14761177 0.06088985
0003a0 4b b4 2b 3c 39 d9 a5 3d 4b 6b 56 bd 16 d9 38 3e
       0.010479997 0.080980726 -0.052348416 0.18051562
0003b0 14 c2 7b be c0 28 50 be 37 29 98 be 65 46 3a be
       -0.24585754 -0.20328045 -0.29718944 -0.18190916
0003c0 99 f9 88 3d 9f b2 a3 be a3 88 27 bc a8 ea 11 3e
       0.06688232 -0.31972215 -0.010225448 0.1424967
0003d0 bf 73 32 3d 14 30 0b be 3e 10 6b be fe 19 3f 3e
       0.043567415 -0.13592559 -0.22955415 0.18662259
0003e0 d6 02 84 bb f0 f3 7e be 15 22 ad 3b 3b db 58 bc
       -0.0040286584 -0.24897742 0.005283604 -0.013235862
0003f0 64 7d 4a 3e f0 09 66 be 5a e2 93 be 7b 68 a3 3e
       0.19774395 -0.22464728 -0.2888363 0.3191565

fc2.bias f4 [10]
000000 84 38 36 3e 67 ee 66 3e b3 71 a1 bd d6 0f 82 bc
       0.17794997 0.22551881 -0.078830145 -0.015876692
000010 c3 6c 85 be b9 6d c4 3d 5d 7c d5 bd 59 40 1a 3d
       -0.2605954 0.095912404 -0.10424111 0.037659023
000020 15 89 a3 3d 14 5c da bc
       0.07985131 -0.026655234
